your_model.onnx (onnx, 235943 bytes, 38 tensors)

model_1_1/separable_conv2d_8_1/separable_conv2d/merged_input:0 f4 [128, 128, 1, 1]
000000 d2 ec 8b be e8 c2 c6 bd 5b 74 a9 3d 59 f8 2f be
       -0.27329117 -0.09705144 0.08274146 -0.17184581
000010 bf 92 53 bc 4b 9d bb bd c5 4d 58 3e 71 fa d3 3d
       -0.012913405 -0.09160861 0.21123417 0.10350502
000020 14 74 30 bd c9 ed 0c 3e 94 09 32 bd 76 5c e5 3d
       -0.04307945 0.13762583 -0.043466166 0.11199276
000030 13 1d 93 be 6b ba 2f 3e 77 e6 57 be c7 22 ee bd
       -0.2873312 0.17160957 -0.21084009 -0.11627727
000040 02 e0 54 bd df ac 10 bd a4 ef c5 bd d0 b4 96 3d
       -0.051971443 -0.035321113 -0.096648484 0.07358706
000050 44 73 e6 3c 57 28 71 bd e3 f0 43 3e 30 ee 57 3d
       0.028131135 -0.05887636 0.1913486 0.052717388
000060 6e a0 1b 3b c4 b7 09 bd bb fd 0b bd 3d 94 11 be
       0.0023746747 -0.03362252 -0.034177523 -0.14216705
000070 4f a8 6e 3d ba e9 05 bd a4 6d 09 be 7b fa 09 bb
       0.05826598 -0.032693602 -0.13420731 -0.002105384
000080 cc bb 74 3d 7b 07 2f 3d ae 73 45 3c 1a 2e 46 3d
       0.05974941 0.042731743 0.012051506 0.04838381
000090 e0 1c fe 3c a1 e8 41 bd 3a 25 2b 3e 24 25 04 be
       0.031019628 -0.047340993 0.1671342 -0.12904793
0000a0 ae 2f d9 bd b7 b3 25 3c 0f f6 39 be 4f 27 89 3d
       -0.10604797 0.010113648 -0.1816027 0.06696951
0000b0 61 ff dc bd 64 ec f2 bc bf 5b 84 bd 53 72 99 3d
       -0.10790897 -0.029653735 -0.06462812 0.07492509
0000c0 e7 e1 04 bd 17 31 3b 3e 85 5f 51 be 53 a9 03 be
       -0.032442 0.18280445 -0.20446594 -0.12857561
0000d0 70 a1 2f 3e 80 54 2c bc 16 08 de bd 83 61 3b bd
       0.17151427 -0.010518193 -0.10841386 -0.04574729
0000e0 8e 7e 83 3d 80 0e 90 bb da 7c 45 3b 3a 46 c9 3a
       0.06420623 -0.00439626 0.0030134232 0.0015356012
0000f0 b3 50 ac bd 06 68 00 be 4c a6 06 3d ef f6 d9 bc
       -0.0841383 -0.12539682 0.032873437 -0.026607005
000100 4c ef 11 be 4b de 35 3c 4f 3e 44 bd e2 1c 90 bd
       -0.14251441 0.011100362 -0.047910985 -0.07036759
000110 f5 1e 2a bd 7e 6c ed 3b b6 d9 1b 3d 03 0d 94 3d
       -0.04153343 0.0072455993 0.038049422 0.07229044
000120 16 48 21 3e 9f 1a 93 ba e3 65 6d bd 47 5d 5d 3e
       0.15750155 -0.0011223144 -0.057958495 0.21617614
000130 16 5f 76 3e 9a fe 2f be 50 ae 98 3d 54 8b 10 be
       0.2405971 -0.17186967 0.074551225 -0.1411565
000140 81 dd 0e bd c8 3e 2d be a1 34 c9 bd f1 f3 d9 bc
       -0.03487921 -0.1691848 -0.09824491 -0.026605578
000150 20 78 04 3e 1f 1b 4f 3d 76 1d 3b 3c e1 f7 7f bd
       0.12936449 0.050562974 0.011420598 -0.062492255
000160 95 63 0e bd 09 6c ab bd f4 3f 16 3d 2f c9 9d bd
       -0.034762938 -0.083702154 0.036682084 -0.07704388
000170 4c 8e f1 3d 8b 0c d1 3d 45 bf 7b 3e 4b 61 72 bd
       0.11794719 0.102074705 0.24584682 -0.059174817
000180 94 6f 0d 3d a3 e8 26 3e bd d6 c3 3d ca 20 58 3e
       0.034530237 0.16299681 0.095624425 0.21106258
000190 f2 56 02 3e 28 8a 39 3e b6 04 94 bd fc 9c 35 3d
       0.1272848 0.18119109 -0.07227461 0.044339165
0001a0 6c b3 7e be 75 c6 5d 3e 33 4b af bd 8b c0 14 3d
       -0.24873132 0.21657737 -0.08559265 0.036316436
0001b0 e2 85 cd bd 3c ee d5 bc 7f a8 2d b9 1d 20 68 3e
       -0.10035302 -0.026114576 -0.00016561335 0.226685
0001c0 e2 bf 3f 3d 15 54 be bd 60 b9 89 bd 26 63 37 be
       0.046813853 -0.09293381 -0.067248106 -0.17908916
0001d0 74 83 ff 3d 55 10 15 be a2 45 2f 3b 0d d1 19 be
       0.124762446 -0.14557011 0.0026744385 -0.15021153
0001e0 25 ae 56 3c 6a cb 40 3e 99 1b 38 3e dc 53 c7 3d
       0.013103043 0.18827596 0.17979278 0.09732792
0001f0 c9 2c 8b 3d f5 bf 67 3e c4 1a 91 bd 93 cb 1f bd
       0.067956515 0.2263182 -0.07085183 -0.039012503
000200 d0 72 e7 bd 62 77 0c bc fb 60 5f 3e 9c 28 29 3e
       -0.113011956 -0.008573385 0.21814339 0.16519397
000210 d9 33 b4 bc 4c 63 af bd 44 32 3c 3e ad 0f d1 3a
       -0.02199738 -0.08563861 0.1837855 0.0015950106
000220 b2 22 fb 3b 26 3a 13 bd 3d e1 8c 3e 08 0a 54 be
       0.007664048 -0.035944127 0.27515593 -0.20706952
000230 dc 4a 0b bd 49 0a 5b 3e 82 e5 a8 bc 00 11 3f be
       -0.03400694 0.21390642 -0.02061725 -0.18658829
000240 da d7 23 be 2a 6b 65 3e 65 f8 98 bd cf ba b7 bd
       -0.1600031 0.22404161 -0.074692525 -0.08971178
000250 d9 99 40 bc 0f b7 7b bd 4f c6 0f be 4f 62 16 3e
       -0.01175543 -0.061453875 -0.14040492 0.14685939
000260 de 0c f2 ba 5e f9 db bd d8 e7 22 3b 54 2f 85 bd
       -0.001846697 -0.107409224 0.0024857428 -0.06503168
000270 53 10 2e be 7e 3f 9c 3e 5b 97 3c 3d 7d df 5d 3c
       -0.16998415 0.3051719 0.04604278 0.013542053
000280 9b db 59 3d 61 7c 1b be 93 fb f4 bc e7 0f 07 3e
       0.053187948 -0.15184166 -0.029905116 0.1318966
000290 f7 b5 18 be cd a4 40 3e fe ea 61 3e 76 48 64 3d
       -0.14913164 0.18812867 0.22062299 0.055733167
0002a0 d0 f4 b8 bd 12 84 8c bd 72 a0 73 bd dd 1c d8 3d
       -0.09031069 -0.06861128 -0.059479184 0.1055238
0002b0 87 1a 0d be 75 1b 13 bd c8 e3 d9 3d 5f e0 16 3e
       -0.1377965 -0.035914857 0.10639149 0.14734028
0002c0 38 66 1c bd 47 77 10 bd 46 69 98 3d ea 78 26 3e
       -0.03818342 -0.03527 0.07441954 0.16257063
0002d0 61 f5 d1 b9 ed e8 6a 3e 68 57 4c 3d ba 83 8a 3b
       -0.00040046408 0.22940417 0.049888045 0.004227129
0002e0 08 98 8a 3d db ab 12 3e f0 12 ea bc de d6 a3 be
       0.06767279 0.1432337 -0.028573483 -0.31999868
0002f0 cb 89 1d 3d 2b 16 00 be 66 f9 97 bd 3d ea cc bd
       0.038461488 -0.12508456 -0.07420616 -0.10005615
000300 3f b0 1b 3e af 48 10 bd 71 85 04 3d 8b 8e 18 3e
       0.15203951 -0.035225566 0.032353822 0.14898126
000310 2d e8 00 3e 1b 54 6b be 16 ad ea 3d 8e 47 ab 3d
       0.12588568 -0.22981302 0.11458795 0.08363257
000320 25 88 de 3c 85 7c 60 3e 74 fe 0d 3e ee e7 50 bd
       0.027164528 0.219225 0.13866597 -0.051002435
000330 82 4c 5d 3d c2 ef 7d bd d7 ab 07 be 0b 6f 22 3e
       0.05402804 -0.06199623 -0.13249145 0.15862672
000340 cf 52 bd 3c d3 d7 10 be a8 b7 7f 3d fb 0b 2b be
       0.023110775 -0.1414483 0.062431008 -0.16703789
000350 96 a9 02 3e 37 da 02 bd 8a 33 91 bc 05 4e ed 3d
       0.12760004 -0.031946387 -0.017724771 0.11587147
000360 f6 71 a6 3d 99 6a a8 3b 1b de 6d bd 81 7f 11 3e
       0.08127205 0.0051396606 -0.058073144 0.14208795
000370 21 f9 45 3e 52 2c 0a 3e a2 0e 8b bd 2e 3e 1c 3e
       0.19333316 0.1349347 -0.067899 0.15258095
000380 e1 95 d3 3d 00 50 21 3e 4f dc 13 3d 50 2d 0e 3d
       0.103313215 0.15753174 0.036098775 0.034711182
000390 4c 9b 88 3d 01 55 39 3e 94 59 06 be 07 53 37 bd
       0.066702455 0.18098833 -0.13120109 -0.044756915
0003a0 e0 bb fb bc ae cb c9 3d b6 7a 96 bd 94 f9 04 3d
       -0.030729234 0.09853302 -0.07347624 0.03246458
0003b0 79 a8 9b 3d 3e c9 2d bd cc e8 dd 3d 88 a2 2f bd
       0.07600493 -0.042428248 0.10835418 -0.04287961
0003c0 3b 70 11 3c 6a 22 d8 bd ff c1 eb 3d 16 2b e4 3c
       0.0088768555 -0.10553439 0.11511611 0.027852576
0003d0 2b 38 84 3d 85 5f 9a 3d 82 26 7a be 21 51 84 3d
       0.06456026 0.0753775 -0.24428752 0.064607866
0003e0 fc 31 b2 bd 56 ce 9b bd 16 31 b5 bc ee ed b1 bd
       -0.0870094 -0.07607715 -0.022118133 -0.086879596
0003f0 e5 36 73 bd 7e 61 99 bd 85 51 89 3d b4 8b ac bd
       -0.059378523 -0.07489298 0.06705002 -0.08425084

model_1_1/separable_conv2d_7_1/separable_conv2d/merged_input:0 f4 [128, 64, 1, 1]
000000 7d e3 4a 3d 47 fe 55 bd 1c 09 5c ba a8 a4 8f 3d
       0.049533356 -0.05224445 -0.00083936914 0.070138276
000010 82 3c e9 bc ba d6 a2 bd c3 66 a7 bc 67 21 44 3d
       -0.028471235 -0.07951112 -0.020434743 0.047883417
000020 7b 13 82 3d 67 b7 1c bc a9 81 a6 3d 06 70 d5 bd
       0.06351372 -0.009565211 0.081301995 -0.104217574
000030 8e bd b4 3d 22 75 7c bd 60 b2 4b bd fd 99 b4 3d
       0.08825217 -0.061635144 -0.04973066 0.088184334
000040 06 5b 19 3d 5d 9d 66 bd 3d 62 0a b9 7e d2 f1 bd
       0.037440322 -0.056302417 -0.00013197302 -0.11807726
000050 34 9e 6c bd 68 33 74 bd 2a 7f 33 bc cb 24 06 bd
       -0.05776806 -0.059619337 -0.010955611 -0.032749932
000060 76 29 82 bd 16 b8 02 3d 9b 51 be 3d 6d ff 00 bc
       -0.06355564 0.03191384 0.09292909 -0.007873398
000070 91 4a 32 bc 4c 73 36 3e 62 b5 13 bd ac 8b a0 3d
       -0.010882036 0.1781742 -0.036061652 0.0783914
000080 84 4a 52 bd e7 3e ee 3c 14 56 bc 3c 68 c8 ad 3c
       -0.051340595 0.029082729 0.022990264 0.021213725
000090 24 76 fd 3c 92 4b a4 3d f9 95 50 3c 06 77 d2 3c
       0.030940123 0.080222264 0.012731069 0.02569152
0000a0 0c d7 e9 3d bc 17 96 3d d0 de 3d 3d cc 4b 26 bd
       0.1141797 0.07328746 0.04635507 -0.04059963
0000b0 2e c5 0c bd 1f b5 05 bd b8 76 49 bd e0 0d 39 bd
       -0.034367733 -0.032643434 -0.049185485 -0.045179248
0000c0 5b 46 3b bd 77 b2 53 3d 53 45 06 3d 30 27 e7 bd
       -0.045721393 0.05168387 0.032780956 -0.11286771
0000d0 70 84 dd bc 67 c1 5f bd f7 17 12 3d 02 ff 97 3d
       -0.02704069 -0.054627802 0.035667386 0.07421686
0000e0 67 c1 cf bd e9 e5 ac 3d f3 7e 15 bb 79 d4 08 bd
       -0.101443104 0.084422894 -0.0022811263 -0.033405755
0000f0 66 2d 2c be d9 ff 9b 3d 69 4d 97 3d 8c 02 a7 3c
       -0.16814193 0.076171584 0.07387812 0.020386957
000100 47 36 bb bc e4 08 f5 bd 3e c6 70 bd ff eb 3a bd
       -0.02285303 -0.119645864 -0.05878281 -0.04563522
000110 19 ed ee bc df 9b cb bd aa 9b 63 3e a1 b3 a2 bd
       -0.029165791 -0.099418394 0.2222735 -0.07944418
000120 ee d3 04 3c c9 89 f9 3c df 41 63 3c 3f 88 08 bc
       0.008107169 0.030461209 0.013870685 -0.008333265
000130 2b a5 c6 bc da 5b ca 3d 6a f1 7f bc 6e 99 95 3d
       -0.02424868 0.098808005 -0.015621522 0.07304655
000140 49 57 d1 bc 96 43 12 3d 64 12 f2 3b 14 dd 85 3d
       -0.025554316 0.035708986 0.0073874462 0.06536308
000150 f9 b6 95 3c ce 3e 04 3e 26 2a af bd 9f 53 05 bd
       0.018275725 0.12914583 -0.08552961 -0.03255045
000160 56 c1 93 bd d7 23 00 bd 88 91 f6 3b f4 1a 34 3d
       -0.0721461 -0.03128418 0.007524673 0.043971017
000170 7f 42 a8 3d d4 f1 83 bb 88 70 4c 3c 17 74 2e 3c
       0.08215808 -0.004026631 0.012478001 0.010647795
000180 0d 2f 8a 3d 52 54 82 3c ac b7 2c bd a8 a1 18 3c
       0.067472555 0.015909348 -0.04216735 0.009315886
000190 f2 96 27 bd 63 f2 d5 bd d0 05 67 3d b9 5c dd 3c
       -0.040915437 -0.10446622 0.056402028 0.027021753
0001a0 1e 66 bf 3b 38 41 20 3e 38 dc 77 3c 70 2a ea bd
       0.0058410307 0.15649879 0.015128188 -0.114338756
0001b0 77 85 68 bc 8d f6 46 bd ff ee e1 3b 05 e8 b1 bc
       -0.014191977 -0.048574973 0.0068949456 -0.02171708
0001c0 70 67 0d 3d 5f 3f 61 3d e3 e1 c0 3c fe 7f af 3c
       0.034522474 0.054992076 0.023545211 0.021423336
0001d0 21 b9 56 3e c1 e4 46 3d 1e f2 04 be 4d ed 3c bd
       0.20969059 0.048558 -0.12982985 -0.046124745
0001e0 88 f7 1e be f9 c0 0f bd b9 e0 3a be 08 8c 49 3c
       -0.15524113 -0.035096142 -0.18249787 0.012301452
0001f0 eb 9e b0 bc 55 d1 9c bd 88 89 31 3e 3e 52 d8 bc
       -0.021560153 -0.076571144 0.1733762 -0.026406404
000200 e9 d2 a9 bc 3b d6 91 bd a4 f8 51 3d e1 5a cb bd
       -0.020730453 -0.07120939 0.051262513 -0.09929443
000210 cb e5 cf 3d 04 b6 73 bc 43 2e 25 bd 77 94 bb 3c
       0.101512514 -0.014874939 -0.04032732 0.022897942
000220 86 10 ee 3c 93 1f a9 3c 5d c4 dd bc e5 9b 30 bd
       0.029060613 0.020644939 -0.027071172 -0.043117423
000230 6a a1 23 bd db 28 d5 3c 62 ee 5e bb 18 9a 18 bb
       -0.03994886 0.026020458 -0.00340166 -0.0023285206
000240 e4 cc f8 bc e2 57 86 bd dc bc a5 3d 3b ac 5d bc
       -0.030371137 -0.06559731 0.08092663 -0.0135298325
000250 af e9 08 bb bc be 7d bd ea 69 95 bb 26 11 9e bd
       -0.002089124 -0.061949477 -0.004559745 -0.077181146
000260 45 b6 b0 3b 1d 04 a4 bc 56 2f f2 3c d6 7b a1 bc
       0.005392822 -0.020021493 0.029563587 -0.01971237
000270 77 48 b7 3b 7f f9 51 3d 44 bd 79 3d 73 87 f7 3a
       0.0055933553 0.05126333 0.060971513 0.0018884972
000280 4c c3 fb 3c d3 2d 9d bc 53 37 6e bd 09 5e b7 3c
       0.030732773 -0.01918689 -0.05815823 0.022383707
000290 3a 66 1e 3c 81 68 12 3d d5 64 b8 3d 8c e3 48 bd
       0.009667927 0.035744194 0.09003607 -0.04904513
0002a0 d5 48 b6 bc 79 34 51 3d 06 4d a2 3a c2 1e 12 3c
       -0.022251526 0.051075432 0.0012382574 0.008918466
0002b0 5c d7 6a bd ad 1b 53 bd 3d c3 e6 bc 57 a2 6f 3d
       -0.05733429 -0.051540066 -0.028169269 0.05850443
0002c0 64 6e 59 bd 0a c3 91 3a 52 af dc bc bd 65 21 bd
       -0.053083792 0.0011120748 -0.026939068 -0.039403666
0002d0 ba 51 bd bd 19 fc 29 3d 4c ff c4 bd bd f0 11 3d
       -0.09244104 0.041500185 -0.096190065 0.035629977
0002e0 ff 4c d4 3c 22 c6 f0 3d ed f5 dc bc eb dd 2f 3c
       0.02591562 0.11756541 -0.026972735 0.010734062
0002f0 e7 10 c5 bd 08 5c fe bc 10 0f f7 b9 df 7a 30 bd
       -0.096223645 -0.031049743 -0.00047122734 -0.04308593
000300 ec 32 44 bd a2 df 00 bd c7 c6 ec 3c 8e b5 65 3d
       -0.047900125 -0.031463273 0.028903378 0.056081347
000310 17 46 d4 bc 7e 9e 55 3d ff 96 8f bd be 27 43 3d
       -0.025912328 0.052153103 -0.07011222 0.047645323
000320 f2 89 92 3c 62 09 c4 bc 90 f0 9e 3d 59 4f 13 3d
       0.017888043 -0.023930255 0.077607274 0.035964344
000330 b7 12 f5 bc 9a 5d 9b bc 03 23 2e 3d 69 8f bd 3b
       -0.02991615 -0.018965531 0.04251386 0.005784918
000340 87 1a d4 bd d7 3a 54 3c 85 90 ae 3c 1a 73 76 bd
       -0.10356622 0.012953482 0.021309147 -0.060168363
000350 85 01 bb bc a6 26 2a bd c0 ee 64 3b 3a b1 f7 bb
       -0.022827873 -0.041540764 0.0034932345 -0.007558969
000360 22 1a 66 bc 02 35 9d 3b 81 9b e1 bd 9c 52 82 bd
       -0.0140443165 0.004797579 -0.11015988 -0.06363413
000370 1c 44 e9 bc 6d 34 2f ba 61 eb 88 bd 2c 81 ab 3d
       -0.02847486 -0.0006683532 -0.0668552 0.08374247
000380 c7 19 a0 3d 6d 24 50 bd 2c 64 05 bd 49 c1 d9 bc
       0.07817417 -0.05081599 -0.032566234 -0.026581423
000390 f3 53 de bd 54 d7 a5 bd de 44 2e be 68 e0 ef 3d
       -0.10855856 -0.08097711 -0.17018458 0.11712724
0003a0 8f 37 ca bc ae d5 09 3d ea fc 00 3b 7f c6 1e 3d
       -0.024684696 0.033651046 0.0019681999 0.03876352
0003b0 d5 58 cf 3d 52 12 aa bb 13 05 a3 3b e5 48 02 bd
       0.10124365 -0.005190172 0.00497497 -0.0318078
0003c0 01 cc 4b bc 60 1d 08 3d 4f 45 7d bc 83 78 47 bc
       -0.012438775 0.03323114 -0.015458419 -0.012174728
0003d0 30 a7 71 bd 2f 8c e8 bd cd 03 a3 3d 73 fa f1 3c
       -0.058997333 -0.11354863 0.07959709 0.029538369
0003e0 f5 a4 24 bd 53 94 82 3d 2b 70 b9 3c f3 d5 1e 3d
       -0.040196378 0.06375947 0.022636494 0.038778257
0003f0 f2 1f 8b bd 28 cd 6d 3d 1a 2b b1 bb a0 af a8 3d
       -0.067932025 0.05805698 -0.0054067494 0.08236623

model_1_1/separable_conv2d_6_1/separable_conv2d/merged_input:0 f4 [64, 64, 1, 1]
000000 77 ae 14 3e ef f5 f0 3d 45 d1 fd bc 05 9b d6 3e
       0.14519678 0.11765658 -0.030983577 0.41915146
000010 75 20 af 3e bf 6e ac 3e f2 b9 0c be 8f f4 79 be
       0.3420445 0.33678243 -0.13742808 -0.24409698
000020 1d 3a 26 be 2e b3 f5 bc 0a ba 51 bd ed ee 9f be
       -0.16233106 -0.029992666 -0.05120281 -0.31236973
000030 99 7c 57 bd af 1e 3d 3e 7b 66 5e 3d ba 05 48 be
       -0.05260906 0.18468736 0.05429695 -0.19533435
000040 32 09 ef bd c9 0d a2 3d 69 51 95 3d ae 8e f4 bd
       -0.11671676 0.079127856 0.072909184 -0.119412765
000050 b0 ba 61 3d e8 4e dd 3e 9b 71 0a 3e 40 88 99 be
       0.05510968 0.43224263 0.135199 -0.29986763
000060 a3 ea 9a be 23 eb a8 3c 6a a4 7a bc 5b 9a ac 3b
       -0.3025714 0.020619934 -0.015297988 0.005267424
000070 73 ce 07 be 7a d4 82 3e 91 c9 de 3b bb 7c d8 bd
       -0.13262348 0.25552732 0.006798931 -0.105706654
000080 7c 51 f6 3d f1 cd 33 be 2d a4 13 3e 3c 27 8d be
       0.12027261 -0.17559029 0.14418097 -0.27568996
000090 14 40 79 be 04 7b 95 3d 11 25 f0 bd 21 bc 7c 3e
       -0.2434085 0.07298854 -0.1172582 0.2468114
0000a0 e9 b0 59 be d2 50 23 3e 30 34 dd 3d da af e2 3d
       -0.21258892 0.15948799 0.108009696 0.11068697
0000b0 e4 29 3d bd ff 43 7c be 2a d4 97 be 9f 38 62 be
       -0.04618253 -0.24635313 -0.29654056 -0.22091912
0000c0 ca f3 9f bc eb 7c 82 bc d0 35 2d 3d b4 06 cd bc
       -0.019525427 -0.015928706 0.042287648 -0.02502761
0000d0 98 10 4a be e4 f4 ef 3d 5a 55 47 3e ec 8e 06 be
       -0.19732893 0.11716631 0.19466153 -0.13140458
0000e0 bf a8 aa 3d 1c e5 18 3e 9b d7 03 bd 6f 66 ed 3e
       0.08332967 0.14931148 -0.03218804 0.46367213
0000f0 61 24 8d bd be d6 64 3c 02 f6 16 3f a0 37 41 3d
       -0.06891704 0.013967214 0.5896913 0.04717219
000100 9b c1 4c 3e 7d 74 10 3e 48 c8 23 3d 06 4d 87 bd
       0.1999573 0.14106937 0.039985925 -0.06606488
000110 b1 b8 ab 3d 7d 98 29 bd 23 41 d3 bd 42 85 df be
       0.083848365 -0.04140519 -0.10315158 -0.43656355
000120 99 5d 46 be 9f e2 65 be 79 ae 1c bd 90 3d a2 bc
       -0.19371642 -0.2244973 -0.038252328 -0.019804746
000130 f7 1a 39 3e 04 f7 f7 3b 23 d4 67 3e 8d a1 58 bd
       0.18076693 0.0075672884 0.22639517 -0.05288844
000140 1f 99 03 3e a4 41 82 be 08 fa 0c 3e c6 99 43 3e
       0.1285138 -0.25440705 0.13767254 0.19101629
000150 8b 73 6e 3d 07 dd f3 3d 45 c8 dc 3c 48 2a eb bc
       0.05821566 0.11907392 0.026950965 -0.028706685
000160 63 da bb 3d 76 51 23 be 6c 46 81 3e 85 07 a0 3e
       0.09172513 -0.15949044 0.2524904 0.31255737
000170 53 88 02 3e 6d 3b 00 3f 4b 13 df bd 8f c9 21 be
       0.12747316 0.50090677 -0.10892352 -0.15799545
000180 e9 ca a7 3e 8f 07 1f 3d 46 d8 29 bd 95 56 23 3c
       0.32771996 0.038825568 -0.04146602 0.009969373
000190 81 8a 1d be 27 ff 89 bd e0 09 5f be c4 f3 4b 3d
       -0.15384866 -0.067381196 -0.21781111 0.04979302
0001a0 d2 6c fd bd 63 cf ed 3c 64 dc 35 3e 96 1a 8c bd
       -0.123742715 0.029029554 0.17759854 -0.06841008
0001b0 ee e0 38 bd 27 f6 57 3e 50 c8 fd bd 71 9d c8 bd
       -0.045136385 0.21089993 -0.12391722 -0.097956546
0001c0 13 d8 a7 3d 34 9b 30 3e 32 78 c7 bd 51 3f 76 bc
       0.0819551 0.17246705 -0.09739722 -0.015029744
0001d0 70 c3 b6 3d f3 d1 12 3e f9 54 ca bd 90 01 d1 3c
       0.089239955 0.14337902 -0.098794885 0.02551344
0001e0 b0 0e ae 3d 7f d2 38 3d f6 98 75 be 11 51 98 3e
       0.08498895 0.04512262 -0.23984131 0.2974935
0001f0 bd 6e 1e be c9 f8 2f bd 15 49 1e be 82 0f 03 bd
       -0.15471931 -0.04296187 -0.15457566 -0.03199721
000200 f3 43 e5 3e eb a9 29 3e 1d 04 84 3e 71 a7 f1 bd
       0.44778404 0.16568725 0.25784388 -0.11799515
000210 a4 33 fc bd 10 a9 29 3d 9f fd 95 bb 94 6c d3 bd
       -0.12314537 0.041420996 -0.004577353 -0.10323444
000220 d1 d2 32 be 4a 47 a2 bc 94 b7 0e 3e 8f d2 88 bd
       -0.17463233 -0.019809384 0.13937217 -0.06680786
000230 fc 74 4d be 42 13 40 3e 3a 84 9b be 6e 83 a8 3e
       -0.20064157 0.18757346 -0.30374318 0.32912773
000240 5e f0 8d bc 5d 65 6a 3e 45 bf b3 3e fd a9 4a 3e
       -0.01732653 0.2289023 0.35106865 0.19791408
000250 4c 4d 1c bd 0a 64 cd 3d ce e0 87 bd f9 e0 af 3e
       -0.038159654 0.100288466 -0.06634675 0.34351328
000260 76 03 89 3e be 52 1f bc 71 c9 92 3e a6 e1 34 be
       0.26760453 -0.009724317 0.28669313 -0.17664203
000270 00 6a 63 3d b9 89 c1 3c d1 b4 13 be f4 43 2a bd
       0.05552101 0.023625242 -0.14424445 -0.04156871
000280 75 94 67 be 35 c5 2d 3e 95 cd a0 3c 96 bd 83 bd
       -0.22615226 0.1696976 0.01962928 -0.06432645
000290 05 bc b8 be 8d a0 9a 3d a6 c3 2c 3d a2 dd c6 be
       -0.36080948 0.07550154 0.042178772 -0.38840967
0002a0 b0 6d 14 be f4 a5 3c be 6c ba ee 3d 5c b7 06 3e
       -0.14494967 -0.18422681 0.11656651 0.13155884
0002b0 94 21 21 bd 0e c8 09 be 94 96 a2 3e 42 1b f4 3d
       -0.039338663 -0.13455221 0.31755507 0.119192615
0002c0 2a ef 4d bc 44 37 37 be 9e 8d b4 3d fb 49 f5 3b
       -0.012569228 -0.17892176 0.08816074 0.007485626
0002d0 04 fc 9f 3e ca de 7d 3e 78 90 13 be d9 37 3d 3e
       0.3124696 0.24792019 -0.14410579 0.18478335
0002e0 74 4f 84 3d 5a 20 0b 3e ce ee 10 3e 6e 86 61 bd
       0.06460467 0.1358656 0.14153597 -0.055059843
0002f0 ca c1 2e bc 9f dc d3 3d e0 ea f0 3d 7c 25 59 3e
       -0.01066632 0.103448145 0.11763549 0.21205705
000300 42 a8 5b be 71 a7 68 3d 68 54 2e 3e f0 bb d8 bd
       -0.21450904 0.05680031 0.17024386 -0.10582721
000310 6d 64 89 be 35 3b 7b 3e c2 01 8a 3e 9c b9 8b be
       -0.2683443 0.24534304 0.26954466 -0.27290046
000320 00 2a 66 bd 8b 7c e7 be 7b c5 32 bd 12 47 1a 3e
       -0.056192398 -0.45212206 -0.043645363 0.15066174
000330 13 6b 39 be fc 62 86 bc 6b f6 21 3e d6 cf a1 bd
       -0.18107252 -0.016404621 0.15816657 -0.0790097
000340 6c 14 87 3d da 14 85 bd e3 df 3d bd d5 71 62 3d
       0.06595692 -0.06498118 -0.046356093 0.05528434
000350 79 9c 57 3e 36 16 84 be 4d dd fa 3d ce b5 3b 3e
       0.21055783 -0.25798196 0.12249241 0.18331072
000360 71 56 a4 3d 9c 4f ad 3e d6 42 a1 bd 1e dc b4 bd
       0.080243 0.338498 -0.07874076 -0.088310465
000370 ed 67 19 3d e7 3b 07 3e 5d 90 87 be 14 ca d6 3d
       0.037452627 0.13206445 -0.26477328 0.10487762
000380 4d ec 88 3e e9 a0 46 3e 98 c4 34 3e eb 5e 8c 3d
       0.26742783 0.1939732 0.1765312 0.06854042
000390 0b 0c 0c 3e 0a b0 28 3e 8c fa 00 3e 98 12 72 bd
       0.13676469 0.16473404 0.12595576 -0.059099764
0003a0 91 00 11 bd 93 1f 82 3d 98 da 35 3e 7b eb a1 3d
       -0.03540093 0.063536786 0.17759168 0.079062425
0003b0 2c 95 bd 3d 0b 4b 2d be 55 7d be bd b2 78 11 be
       0.09256968 -0.16923158 -0.09301249 -0.14206198
0003c0 7b 71 86 be e1 fd 92 bd 01 fb d7 bc bf f3 b0 be
       -0.26258454 -0.0717733 -0.026364805 -0.34560964
0003d0 a3 6f ca 3d 78 56 c2 bd 53 13 79 bd c7 c7 df 3c
       0.09884574 -0.09489149 -0.060809445 0.027316941
0003e0 bb 5a a8 be 90 ae 2a 3d 96 fc de bc b5 a5 a0 be
       -0.32881722 0.041670382 -0.027220052 -0.31376424
0003f0 b7 39 1a be 58 98 d3 3e fa 40 cc bd 67 90 fc 3d
       -0.15061079 0.41327167 -0.09973331 0.1233223

model_1_1/separable_conv2d_5_1/separable_conv2d/merged_input:0 f4 [64, 32, 1, 1]
000000 4c af 91 3d f5 ad 17 3d 10 34 cf 3d 1c 8a 92 bd
       0.07113513 0.037031133 0.10117352 -0.071552485
000010 d7 07 bb 3d 80 13 ab bd 12 a5 38 bd 61 21 f4 bc
       0.09132355 -0.08353329 -0.0450793 -0.029801073
000020 a9 23 1d bd 49 00 06 3e bb 4a 8e bc 32 4d 81 bb
       -0.038364086 0.13086046 -0.017369619 -0.00394597
000030 f6 58 41 3d 4d 18 ef bd d5 28 b6 bc 21 4f d1 3c
       0.04720398 -0.11674557 -0.022236267 0.025550427
000040 cd 55 11 be 0d 23 a2 bc 7f 2c 28 3d cf b2 0b 3d
       -0.14192887 -0.019792104 0.04105806 0.034106072
000050 98 eb 4a bd d6 24 e6 3d 99 07 49 be 34 be 2c 3d
       -0.049541086 0.11237495 -0.19631805 0.04217358
000060 2d 94 d8 3d ad 84 01 be 54 56 24 3d 8a 26 5f bd
       0.10575137 -0.12648268 0.04012139 -0.054480113
000070 2b a8 93 3d f0 83 a2 bb e4 b6 4d be 2d e0 1e bd
       0.0720981 -0.004959576 -0.20089298 -0.03878801
000080 f4 e2 b5 bc 77 c4 01 bd 8f e6 a0 bd 36 37 ee bd
       -0.022202946 -0.031681504 -0.078564756 -0.116316244
000090 de 05 32 3d af e0 ec bc 2c 12 7b bd 1f b1 0d 3e
       0.043462627 -0.028915731 -0.061296627 0.13837098
0000a0 78 aa 84 3d e9 79 fb 3d 93 6e 3d 3c 3a 52 55 bd
       0.06477827 0.12279112 0.0115620075 -0.05208037
0000b0 3f 97 b2 bc 68 a4 02 3d ac ab 8a 3c 0f 77 b8 3d
       -0.021800635 0.03189507 0.016927563 0.090070836
0000c0 f2 34 66 3e 6d 34 ff 3c b9 1b 73 bd 5e 6d 12 be
       0.22481135 0.031152928 -0.05935261 -0.14299533
0000d0 a7 04 59 bd f0 53 c5 3d e9 2b 9a bd 41 b8 da 39
       -0.052982952 0.096351504 -0.075279064 0.0004171748
0000e0 15 4f 66 3d a9 01 10 be 2e e7 7b be f0 ee 65 bd
       0.056227762 -0.14063133 -0.24599907 -0.05613607
0000f0 97 0c 83 bd ee 0c 29 3d 3e f9 8b 3d 93 2b c7 3d
       -0.06398886 0.041272096 0.068346485 0.09725108
000100 67 a4 1f 3d 06 79 fb 3d fb e0 11 bc 36 88 9b 3b
       0.038975146 0.12278943 -0.008903737 0.004746462
000110 c1 63 c7 bc 85 58 4f 3e d4 31 9c 3d e6 c0 26 bd
       -0.024339559 0.20248611 0.076266915 -0.040711306
000120 0c 3f 66 3c f9 7e 58 3c 23 3d a8 3d db ad bb 3b
       0.0140531175 0.013213866 0.08214786 0.0057275123
000130 0c 0d a9 bd 04 f0 5e bd 92 38 f1 bd 67 9e 6e bd
       -0.082544416 -0.054428115 -0.11778368 -0.058256533
000140 ea bd fb 3d 79 b3 30 bd 8e dc 69 3d 6c 4c 95 bd
       0.122920826 -0.04313991 0.057095103 -0.07289967
000150 1c e2 bf 3d c2 a8 e0 bd 4d 2e f5 3b f3 03 98 bd
       0.09369299 -0.10969688 0.007482326 -0.07422628
000160 92 33 97 3d 5f 83 a3 bb cd cb 14 bb a2 b8 88 3b
       0.07382883 -0.004990026 -0.0022704483 0.0041724006
000170 25 57 a8 3d 78 00 d0 3d c7 9f 70 be 1f 50 bc bd
       0.082197465 0.101563394 -0.2349845 -0.091949694
000180 d4 61 43 3e d4 96 b2 bd 27 e1 82 3d ac f6 4a bd
       0.19080287 -0.087201744 0.06390601 -0.04955165
000190 34 cd 2f bd b3 20 b1 3d dd f1 64 3c 54 e7 45 3e
       -0.042920306 0.08648815 0.01397368 0.19326526
0001a0 2b a6 b9 bd 7b cb fe bc 72 9a ed bb 78 21 fb bc
       -0.09064897 -0.031102886 -0.0072510773 -0.030655608
0001b0 66 8b 1b be ed 4e 15 3c 3e ad 47 bc a7 d6 a6 bd
       -0.15189895 0.009113056 -0.0121873 -0.081464104
0001c0 0e dd 3f bd ba e6 68 bd a6 ea dc bc 04 49 bc 3d
       -0.046841674 -0.056860663 -0.026967358 0.09193614
0001d0 1b e1 77 3c d7 c2 16 be b4 ad f1 bc 17 6d 94 3d
       0.015129353 -0.14722763 -0.029501773 0.0724737
0001e0 3a 9f 6b 3d f3 41 f0 3c 2b 35 9f bc 56 fa 6f bd
       0.057524897 0.029328322 -0.019434532 -0.05858835
0001f0 51 ba 89 3d e5 06 90 bc d6 77 7c bd 21 9f 00 3e
       0.0672499 -0.017581413 -0.061637722 0.12560703
000200 6d e7 99 3e f5 a9 7b 3d 95 6c 1d 3e 2c f9 97 3b
       0.30059376 0.06144138 0.15373452 0.004637858
000210 a7 f2 66 ba b9 b3 1e 3d 7d c2 8f bd e3 fb 42 b9
       -0.0008809962 0.038745616 -0.070195176 -0.00018595117
000220 b4 4e 25 be 70 ce 2e 3d d7 8c b3 bc 33 a1 a8 3d
       -0.16143304 0.042677343 -0.021917744 0.08233871
000230 ee 15 56 bd 7f 16 50 3c c5 e7 35 bd 72 8a 02 bb
       -0.052267008 0.012700676 -0.044410486 -0.0019918946
000240 25 0f dd bb 41 c8 ba 3b 97 80 8e bd d1 4a 70 3c
       -0.00674619 0.0057001417 -0.0695812 0.014666275
000250 ea 59 0a 3d 04 de 44 3d 27 77 eb 3c 36 f3 1f bd
       0.033777155 0.048063293 0.02874334 -0.039050303
000260 2d 99 91 3d 13 b0 24 bd 35 ff ac 3c c5 55 fb 3d
       0.07109294 -0.04020698 0.021117786 0.122722186
000270 0a 6b 07 3c a7 5e 09 be d6 3b ba bd 55 94 cc bc
       0.008265266 -0.13415013 -0.09093444 -0.024973074
000280 7b c8 e0 bd a4 09 b9 3d 28 8d 1e 3b 93 b3 7c bd
       -0.109757386 0.09035042 0.0024193022 -0.061694693
000290 4b 5a 50 bd 25 f0 5e ba 8f 16 80 bd 11 a3 01 3e
       -0.05086736 -0.0008504412 -0.06254303 0.12659861
0002a0 b7 3e 38 3d 7c be f7 3c d9 52 c6 bc ad 8f 91 3c
       0.044981685 0.030242197 -0.024209427 0.017768705
0002b0 2d ca c0 3b e6 0c 20 bd 9d 49 83 bd af 6c d0 ba
       0.005883476 -0.0390748 -0.06410525 -0.0015901531
0002c0 ad 79 3b bd 21 90 61 3d 3e 08 3b bc a4 a9 69 bd
       -0.045770336 0.055069093 -0.011415539 -0.057046548
0002d0 05 75 89 bc 81 6e 15 bd b0 ae f0 bd a2 95 89 3d
       -0.016779432 -0.036482338 -0.11752069 0.06717993
0002e0 10 11 3b bd 87 c4 f8 3c b3 14 af 3d 1e b8 95 3d
       -0.04567057 0.030367149 0.0854887 0.07310508
0002f0 2f 7d 01 be bd 92 5b 3d 86 3b a9 3d 8c f1 dd bd
       -0.1264541 0.053606737 0.08263306 -0.10837087
000300 3c 2b 00 3e 18 10 4f bd 05 4e a8 3d df d2 a0 3d
       0.12516493 -0.050552458 0.08218006 0.078527205
000310 74 cc 09 3d 52 21 1e 3e b0 79 67 3b 8b 6e ac bc
       0.033642247 0.15442398 0.0035320334 -0.021048805
000320 60 df 84 bd 02 cb 4f 3d cb 65 6c 3d ae 50 00 3e
       -0.06487918 0.050730713 0.057714265 0.12530777
000330 d6 fa dc bd 2d ab 14 3d f0 f7 d0 bc 84 04 9c bd
       -0.10790031 0.03629606 -0.02550885 -0.07618049
000340 b7 b2 24 3c 0e ba 15 3d a7 c3 ac bd fa d5 39 3d
       0.010052375 0.03655439 -0.08435755 0.04537008
000350 34 6b b8 bd 0d 0c 72 be 5e e4 a4 bd 72 e4 c1 bd
       -0.090048224 -0.2363741 -0.0805137 -0.094674006
000360 82 06 97 3d a7 8f 9f bd 21 59 72 bd 3f ea 26 3d
       0.07374288 -0.077910714 -0.05916703 0.04075074
000370 f0 a2 c8 bb 36 d4 f5 bc 2c 18 d9 bd 6f 37 2f 3e
       -0.0061229393 -0.030008417 -0.106003135 0.1711099
000380 27 c5 34 bd 9f 0b 4a bd 50 e4 4b be d5 dd 0b bd
       -0.04413333 -0.04932749 -0.19911313 -0.034147102
000390 1a be 57 3e ef 85 cc bd d7 a6 35 bd 1c 03 87 bd
       0.21068612 -0.09986483 -0.044348564 -0.0659239
0003a0 e9 9f d5 bd e4 11 91 bd 41 1a 0c 3d 47 60 41 3d
       -0.10430891 -0.070834905 0.034204725 0.047210958
0003b0 e6 64 08 be 0e 12 1e bd 97 1c e7 bd b3 d2 c8 3d
       -0.1331974 -0.038591437 -0.1128475 0.09805813
0003c0 c7 f4 40 3e 97 d4 0e 3c 6a cf b0 3d 9f 55 aa 3d
       0.18843375 0.008717678 0.08633311 0.08317112
0003d0 5b 08 95 3b fe ac ae 3c bc 68 a0 3d 61 62 88 bb
       0.004548115 0.021322723 0.078324765 -0.0041621183
0003e0 17 0a 9a 3d 03 8d 03 3e c7 a8 4a 3d ed d6 e2 bd
       0.07521456 0.1284676 0.049477365 -0.1107615
0003f0 ed b0 07 3d b6 df 3a bd 26 d8 8e 3b 94 72 f0 bd
       0.033127714 -0.045623504 0.004359263 -0.11740604

model_1_1/separable_conv2d_4_1/separable_conv2d/merged_input:0 f4 [32, 32, 1, 1]
000000 93 d9 13 3e 26 f1 64 be 32 2f 69 be 96 41 90 be
       0.14438467 -0.22357616 -0.2277191 -0.28175038
000010 90 3a 40 3e 51 19 de bd ed 12 b5 3e 00 d1 84 be
       0.1877234 -0.108446725 0.35366002 -0.25940704
000020 99 af 80 be 73 17 92 bd 2b ae 0e 3d 8c 2d ca be
       -0.2513397 -0.07133379 0.03483407 -0.39487875
000030 de 7f 2f 3e eb 51 21 3d 81 c4 e5 bd 53 9d 0d bd
       0.17138621 0.039384764 -0.11219121 -0.034573864
000040 c7 0d 30 3d 8a 3c 09 bd f7 87 06 be 03 95 0b be
       0.04298189 -0.033505 -0.13137804 -0.13631062
000050 52 61 10 be 25 28 29 be 07 2f 15 3e c8 a6 a3 3e
       -0.14099625 -0.1651922 0.14568721 0.31963181
000060 94 43 9e 3e 40 e0 b8 bb 8f 08 c9 3e 77 bc 97 3e
       0.30910933 -0.005641967 0.39264342 0.29635975
000070 61 43 a5 be 53 13 06 be d9 24 9f 3d 7f 3c 81 3e
       -0.3227797 -0.13093309 0.077707 0.25241467
000080 66 fa a4 3e 3c 75 ae be f6 1f 81 be 20 4b 35 3e
       0.3222229 -0.34073818 -0.25219697 0.17704439
000090 11 6f 94 be 47 30 f9 3e 93 55 27 3e e8 e7 98 bc
       -0.28990987 0.48669645 0.16341238 -0.018665269
0000a0 2f 9f f0 3d fa 97 b0 bd b7 ee 0f bf 5e 52 59 3e
       0.11749112 -0.08622737 -0.56223625 0.21222827
0000b0 d9 c5 b1 3e 64 cf 80 be b4 8c 35 3d 7b 63 0e 3f
       0.34721258 -0.25158226 0.044323638 0.55620545
0000c0 86 8a 35 3e bd 45 b5 bd 94 51 52 3d 98 65 80 3e
       0.17728624 -0.08851192 0.05134733 0.2507751
0000d0 30 9b 25 3a 2f 2a 95 3d 08 df 52 be 90 19 39 be
       0.0006317375 0.072834365 -0.20592892 -0.18076158
0000e0 c4 fb 44 3e c0 57 bf 3d 1a 82 9a be 70 11 a1 3e
       0.19236666 0.09342909 -0.30177385 0.31458616
0000f0 bb ed 3b be 93 cf aa 3e 9c cc b6 be 4b 95 f4 bb
       -0.18352406 0.33361492 -0.3570298 -0.007464086
000100 4f a0 38 3d 68 ad d7 bb ce 90 be bc df d8 67 3d
       0.045074757 -0.006581951 -0.023262408 0.05660331
000110 5c 4d bf bc 2c aa cc be 73 59 f5 bd 0f 9e 51 3e
       -0.023352318 -0.3997358 -0.11979952 0.20470451
000120 90 69 ea bd d8 7d 2c be d8 25 ee 3d 74 19 4c be
       -0.11445916 -0.1684488 0.11628312 -0.19931585
000130 ea b1 00 bd 1f 89 82 be 8f 75 c7 bd bd fa d6 bd
       -0.031419672 -0.2549524 -0.097392194 -0.10497043
000140 89 c1 71 3e ad 57 8e 3c 2b 78 b1 be 7a a3 49 3e
       0.23608984 0.017375791 -0.34661993 0.19691268
000150 41 ad 16 be b5 91 b2 3e e3 1f a4 bd 00 6f 53 bd
       -0.14714529 0.3487679 -0.080138944 -0.05161953
000160 b6 5b b1 3b 8b 0b 59 3e 02 31 14 be b9 16 62 bd
       0.005412544 0.2119581 -0.1447182 -0.05519745
000170 86 c9 bc be 2e 43 cc 3d 61 01 29 3e a9 7e b9 be
       -0.368725 0.09973751 0.16504432 -0.36229447
000180 aa 4d ad bd 8c 7d 94 be 04 56 3e be d9 b0 c8 3e
       -0.08462079 -0.29002035 -0.185875 0.39197424
000190 a2 50 2c 3d 71 12 5a be 2a f5 5a 3e 4c c2 28 3e
       0.042069085 -0.21296097 0.21382585 0.16480368
0001a0 f7 3e d3 be c6 9a 16 be 9e 40 18 bd a7 e5 2a 3e
       -0.41258976 -0.14707479 -0.037171 0.16689168
0001b0 64 14 a8 3d 56 ce 8a 3d b9 dc 35 3d 23 a6 8b bd
       0.08207014 0.06777637 0.04439995 -0.068187974
0001c0 27 91 70 3e b5 55 0b 3e 43 c1 6b 3d bc b0 49 be
       0.23492871 0.13606913 0.057557356 -0.19696325
0001d0 32 98 6c 3d 4d d4 60 3e 8a ef c8 bc d2 dc 3e be
       0.057762332 0.21955986 -0.024528284 -0.18638924
0001e0 fd 8d 1a 3e a5 18 4a 3e 25 de 86 3e ad 11 95 be
       0.15093227 0.19735964 0.26341358 -0.29115048
0001f0 1e 95 51 3e 08 36 a2 bb 2d 09 88 bd 7e 42 21 bd
       0.2046704 -0.0049502887 -0.06642375 -0.039370053
000200 18 8a 1c be f4 16 e4 3c 9d 1c bc be c0 86 04 3e
       -0.15287054 0.027842976 -0.3674058 0.12942028
000210 35 85 c3 3d e8 00 51 be 91 79 2b 3e 6d 5b 14 3e
       0.095468916 -0.20410502 0.16745593 0.14488001
000220 98 6e 8c be f9 60 ce bd 5a 14 b8 3d f8 cb 0f 3e
       -0.27428126 -0.1007709 0.08988257 0.14042652
000230 75 47 e5 3c 1b c5 45 bd 89 cb 7b be 54 1a 18 3e
       0.027988175 -0.048283678 -0.24589361 0.14853793
000240 2b 01 c9 bd 10 76 72 3e d5 1c 7d bd 77 13 ab 3d
       -0.09814676 0.2367785 -0.061795074 0.08353322
000250 32 ec 51 bd 46 dd 50 3e b2 af 75 3e 9d 7b 1f be
       -0.051250644 0.20396909 0.23992804 -0.15574498
000260 79 75 cc be 0d 7e a4 3e f0 a9 dc 3d ea b6 f5 3b
       -0.39933375 0.3212742 0.107746005 0.0074986117
000270 35 5a 0b 3e 2e 0c ed bd 0b 1a 61 3d 29 ca 1f 3e
       0.1360863 -0.11574589 0.054956477 0.15604462
000280 d4 19 b8 3b 81 0f 7c 3d 9f 35 12 bd 76 97 e0 bd
       0.0056183133 0.061538223 -0.03569567 -0.10966389
000290 30 38 99 bd 11 b8 34 3e 3e 73 a8 be 69 3c be 3e
       -0.0748142 0.17648341 -0.32900423 0.37155464
0002a0 cf c6 4e be 09 4d 6e 3e 7c 68 da 3d f9 02 da 3d
       -0.20193027 0.23271574 0.1066446 0.10645098
0002b0 51 6b 6b 3b 90 c7 99 3d 11 6a 83 be 85 d9 37 3e
       0.003592212 0.07508767 -0.2566686 0.17954071
0002c0 29 ec 9b 3e 01 ca 19 3e 3a 1b 2b 3e ee 84 31 bd
       0.30453613 0.15018465 0.16709605 -0.043339662
0002d0 6e 17 db 3c fa ab 10 3e 7e 09 ef bc 41 f9 4f be
       0.02674457 0.14128104 -0.02917933 -0.20309927
0002e0 cc c1 8c be 51 d4 31 3b 68 a0 20 3e ad 42 6f 3d
       -0.27491605 0.0027134607 0.1568619 0.058413196
0002f0 07 4e 36 be 74 57 c5 ba 05 3d a0 3d 13 1f 86 be
       -0.17803203 -0.001505597 0.078241386 -0.26195583
000300 ef a6 89 3e e1 63 d2 3e 5b 16 64 3c 39 0d 7d be
       0.26885173 0.41091827 0.013921346 -0.24712075
000310 88 50 13 3e 8d b3 4a bc 8e 3e 14 3e 7e b2 2b be
       0.14386189 -0.01237191 0.14476988 -0.16767308
000320 00 a2 40 be f2 05 12 bd 01 2f db 3a 6f c3 a9 be
       -0.18811798 -0.0356502 0.0016722382 -0.33156916
000330 e8 9d 3b 3e 72 e9 9a 3e 43 ad bb 3e ca 78 91 3e
       0.18321955 0.3025623 0.36655626 0.28412467
000340 c3 de db bd 6f 05 11 3e d2 41 b8 3b b1 f4 bb bb
       -0.10735848 0.14162229 0.005623081 -0.0057359566
000350 cf 56 0d bf 21 99 28 3e 4b ee aa 3e 22 20 08 be
       -0.55210584 0.16464664 0.33384928 -0.13293508
000360 c8 39 cf 3d 78 40 09 3d ad c5 06 be ba dd 83 bc
       0.10118443 0.033508748 -0.13161345 -0.016096938
000370 02 6b f3 3e 39 f5 85 be cf b2 98 bd a4 c7 5c 3e
       0.47542578 -0.26163653 -0.0745598 0.21560532
000380 9d d9 a8 3e e8 69 3e be 36 77 95 be b5 ab 8d bd
       0.32978526 -0.18595088 -0.29192513 -0.06917516
000390 55 07 93 3e 2e 90 fb bd 69 a3 a9 3d 74 ab 75 be
       0.2871653 -0.122833595 0.08283121 -0.23991185
0003a0 c4 4e af be 88 f8 35 be e3 15 51 3e b6 d9 3d 3e
       -0.3423978 -0.17770588 0.20418505 0.18540081
0003b0 98 5f 93 3e 03 99 28 3e 52 f5 fb 3d 3c 13 7c 3e
       0.2878387 0.1646462 0.123026505 0.24616712
0003c0 b5 e8 7e be 25 de 35 3d ae 2e 76 bd 7c 22 2b 3e
       -0.24893458 0.044401307 -0.06010311 0.16712373
0003d0 1c ad d6 3c 35 dc 16 3b c1 a2 0b be 37 25 62 3e
       0.026205592 0.0023019437 -0.13636304 0.22084509
0003e0 76 0a fb bd fd b3 c5 3e bf 38 0a be 94 b2 ab bd
       -0.12257855 0.38613883 -0.1349821 -0.083836704
0003f0 83 39 a3 bd ad ee 09 be d0 37 21 3e 00 bf 03 3e
       -0.07969954 -0.13469954 0.15743947 0.1286583

model_1_1/separable_conv2d_3_1/separable_conv2d/merged_input:0 f4 [32, 16, 1, 1]
000000 8c 88 2f bd f7 cb 93 3d 8e 4a 8d be 96 c3 1d 3e
       -0.04285483 0.072166376 -0.27595943 0.15406641
000010 25 a4 e5 bd 20 9f 5e 3d 97 ff 84 3d 6e 6f 87 bb
       -0.11212949 0.054350972 0.064940624 -0.0041331565
000020 fe b3 27 3b 51 c4 90 bc 69 43 1b bd 45 7c b5 3d
       0.0025589461 -0.017671736 -0.037906084 0.08861593
000030 67 55 4c 3c 8b 06 c1 bd 22 56 a7 bb 70 99 dd bd
       0.012471533 -0.09425076 -0.0051067034 -0.108202815
000040 0c 60 60 3d 28 a1 9e 3c 92 6a aa bd 6a 3c 15 bb
       0.054779097 0.019363955 -0.08321108 -0.0022771605
000050 c3 c4 c3 bd 43 54 9b 3d a6 72 c0 3d 13 84 b9 3d
       -0.09559014 0.07584431 0.093968675 0.09058394
000060 f1 09 01 3d 66 83 e3 3d 8b b8 f1 3d 1e b3 ef bc
       0.03150362 0.11109047 0.11802777 -0.029260214
000070 22 33 ee bd 29 ee a5 bd 31 66 a1 3d a5 53 05 3d
       -0.116308466 -0.08102066 0.078808196 0.032550473
000080 24 cd 60 bd d2 23 57 3d c4 e3 24 3d 5e ae 55 3d
       -0.054883137 0.052524395 0.040256277 0.052168243
000090 8a 5e 82 3d a4 e7 be bc f7 7a 0e 3d 1b c1 83 bc
       0.06365688 -0.023303814 0.034785237 -0.01608329
0000a0 3f 6a 05 be 86 7c 05 be c7 a0 4d 3d 23 42 81 3d
       -0.13028811 -0.13035783 0.050202157 0.06311443
0000b0 cb 16 0d 3e ec d7 7e 3d ba b0 8d bd 76 83 2f be
       0.13778226 0.062217638 -0.069184735 -0.17139992
0000c0 5f 00 b4 3d 7f c5 40 bd 0f 85 b3 bd 49 ba 22 3c
       0.08789133 -0.047063347 -0.08765613 0.009932109
0000d0 e7 dd 0e be 87 ca 1f 3e 8c 35 ac 3d 8b 71 a5 3c
       -0.13951837 0.15604602 0.08408651 0.020195743
0000e0 cd fe 9a 3d ba 2c d4 3d 3d 4d af 3d 01 c7 01 3d
       0.07568131 0.103600934 0.08559654 0.031683926
0000f0 a9 49 7a be 05 1c 90 3d f1 56 84 bc b8 d2 11 bd
       -0.24442162 0.07036594 -0.016154738 -0.035601348
000100 4b 68 20 be b3 21 b2 bd 12 7f 04 be 6a 54 07 bc
       -0.15664785 -0.08697834 -0.12939098 -0.008259872
000110 6d 7b 4e be b1 5e a5 3c dc 18 63 3d 9e 73 4b be
       -0.2016427 0.020186754 0.05544363 -0.19868323
000120 a3 21 6e 3d 91 02 14 3d 74 28 0b 3e e6 86 50 3e
       0.058137547 0.03613526 0.1358965 0.2036396
000130 4e b7 bf bd 2e e8 7e 3d 97 91 a6 bc 06 04 da 3c
       -0.093611345 0.062233143 -0.020333095 0.026613247
000140 a5 f4 cc bd 15 7e 15 bd 6f 5c 1a 3e 98 3d 3c 3c
       -0.100076 -0.036497194 0.15074323 0.0114892945
000150 9e 20 ac bd 4f 11 3f be bb d3 75 bd bd 79 3b be
       -0.08404659 -0.18658946 -0.060016375 -0.18308158
000160 3d cc f2 bd 69 48 ea 3d 34 27 50 3d 7e ce da bd
       -0.118553616 0.114395924 0.050818637 -0.106839165
000170 aa 68 b4 bd a7 0c 9f 3d 42 2a 9d bd 17 4e 22 3e
       -0.088090256 0.07766085 -0.07674076 0.15850101
000180 24 3b a7 bc 06 02 38 3c 10 4d 2a be 1e 34 82 bd
       -0.020413943 0.011230951 -0.1663096 -0.06357597
000190 59 8d 0b bd 20 bf d8 3d 8b 40 14 bd e0 dd 20 3c
       -0.034070347 0.10583329 -0.036194365 0.009818524
0001a0 c8 21 20 3d b1 df 5d 3e 61 00 c4 3d d0 99 95 bd
       0.039094716 0.21667363 0.09570385 -0.07304728
0001b0 68 fa 15 bd df 4b a4 bd 94 cc c5 3d e4 86 7d bc
       -0.03661576 -0.08022284 0.09658161 -0.015474055
0001c0 ea 86 81 bd 3d a8 6b be af ea 8d 3d 1a cb d1 3c
       -0.06324561 -0.23013397 0.06929528 0.025609542
0001d0 a9 4f c7 bc e8 b1 5c 3e fd 2f 63 bd d3 d6 1c 3e
       -0.024329977 0.21552241 -0.055465687 0.15316324
0001e0 11 59 e3 bd 69 d4 26 be 19 ac 91 3d 19 8a 2f be
       -0.111009724 -0.16291966 0.07112903 -0.17142524
0001f0 2a 99 5c 3d c9 93 1d be c3 55 b6 3b 7b fb c5 bd
       0.053857006 -0.15388407 0.005564423 -0.09667107
000200 19 1f cf bd 43 0a c2 bd 59 42 f7 3c 5c 0b 1c 3d
       -0.10113353 -0.094746135 0.030183004 0.03809677
000210 a2 a2 02 3e 92 3d 4f 3d 44 cd 0f 3e df 24 82 3d
       0.12757352 0.050595827 0.14043146 0.06354689
000220 08 df 97 bd 2e 74 8c 3e 5a 83 43 3d 5a 87 01 be
       -0.07415587 0.27432388 0.04773269 -0.12649289
000230 2e 51 51 3d ff 6f 33 bc 60 8c 48 bd 49 0e 50 be
       0.05110281 -0.010951995 -0.048961997 -0.2031795
000240 71 24 a8 bc 27 ba b0 bd f3 6e 96 3c ff 92 fd 3d
       -0.02052519 -0.08629256 0.018363452 0.12381553
000250 8f 6d 32 be 1b d8 77 bb 5f c7 c8 bc 30 79 9c 3b
       -0.17424606 -0.0037818018 -0.02450913 0.004775189
000260 d9 51 04 3e 1a f1 2d 3b 90 5e a3 bd 59 38 b6 bd
       0.12921847 0.0026541413 -0.07977021 -0.08897466
000270 15 72 a1 3d c9 00 be 3d 07 34 39 3c 38 fb 39 bc
       0.078830875 0.092774935 0.011303908 -0.011351399
000280 c3 f0 82 bd 43 67 0a 3e 6d be a4 3d 9d a0 04 3d
       -0.06393578 0.13515954 0.08044133 0.032379735
000290 4d 66 70 bd 72 cc 45 3b a2 46 d8 3c 98 be 88 be
       -0.05869131 0.0030181673 0.026400868 -0.26707911
0002a0 fd 2c 73 3e 05 5e 73 be 88 9b 04 3e 28 10 48 3e
       0.2374763 -0.23766334 0.12949955 0.19537413
0002b0 cf 56 8f 3d 25 e4 51 bd 0a d9 08 bb 99 50 a8 bd
       0.06998979 -0.051242966 -0.0020881318 -0.08218498
0002c0 e1 02 43 3d 58 9f 5f 3e 4b 55 b2 bd 85 f9 5f 3c
       0.047610167 0.21838129 -0.087076746 0.01367033
0002d0 19 b0 97 3d 39 b7 e8 b9 9b 64 7e 3e 28 b0 6d bd
       0.07406635 -0.00044387 0.24843065 -0.058029324
0002e0 70 a0 90 bc 4a 41 19 3d 8a a1 87 3d 51 ec 8c 3d
       -0.017654628 0.03741578 0.06622608 0.06881011
0002f0 67 a8 00 be c1 29 fa 3c 45 bd f3 bd 1a 24 cb bc
       -0.1256424 0.030537488 -0.11901335 -0.024797488
000300 03 10 77 bc 44 54 44 3d d9 71 65 3b 15 22 ca 3d
       -0.015079501 0.047931924 0.0035010485 0.09869782
000310 bf 50 5c 3d 43 d6 92 bd 62 dc e6 bd 5e aa 5c bd
       0.053787943 -0.071697734 -0.112725034 -0.053873412
000320 e5 d8 33 3e ba cc aa bd 05 81 8f be 2f 80 51 3d
       0.17563207 -0.0833983 -0.28028122 0.051147636
000330 f9 07 33 3d 98 25 af 3c 9d 57 b7 3d 6f 5d 00 be
       0.043708775 0.02138023 0.08952258 -0.12535642
000340 fe ef 5a 3d af 8f 52 be 3a f2 04 3e 43 ce f3 bd
       0.05345153 -0.20562623 0.12983027 -0.11904576
000350 c0 ee 37 3d 2d 2b aa bd 40 ca e0 bd d5 47 73 bd
       0.044905424 -0.083090164 -0.10976076 -0.059394676
000360 ec ea f9 3b 91 b5 a3 3d dd a0 d6 3d 58 b9 15 bd
       0.007626882 0.079936154 0.10479901 -0.03655371
000370 9e a1 e3 3c 76 c7 d8 bb fc 44 c3 bb 7f 50 23 3e
       0.027787026 -0.0066155745 -0.0059591513 0.15948676
000380 14 31 0d 3d 32 2e c9 3d 9d 33 9f 3a ac de 9a 3d
       0.034470633 0.09823264 0.0012146119 0.075620025
000390 0b d8 4f bc 70 5e e6 bd 64 b4 04 3e 6d e0 78 3d
       -0.012685786 -0.11248481 0.12959439 0.060760904
0003a0 42 a3 17 3e be b1 3b bd d6 a7 27 3d 7e 83 c8 3c
       0.14808372 -0.045823805 0.040931545 0.024476763
0003b0 3d 45 37 bd 1c cf 86 3d d8 3c a8 3c a2 04 98 3d
       -0.044743765 0.06582472 0.020536825 0.07422759
0003c0 a7 23 1f be d7 33 5a bd 2c 56 a3 3d ea b3 f8 bd
       -0.15540944 -0.053272095 0.0797542 -0.12143691
0003d0 60 21 0c 3e 70 08 c8 3d 7a d0 0b 3d 9f 2f 04 be
       0.13684607 0.09767234 0.034134366 -0.12908791
0003e0 fd 3d 07 3d 73 ed 83 3d 87 38 a9 3d 3a 58 d5 3d
       0.0330181 0.06441774 0.08262735 0.104172185
0003f0 bb a2 9b bd 0d 60 e5 3d 61 39 50 be 27 82 54 3d
       -0.07599398 0.11199961 -0.20334388 0.051881935

model_1_1/separable_conv2d_2_1/separable_conv2d/merged_input:0 f4 [16, 16, 1, 1]
000000 4c 1f cd 3e 8d f9 30 3f 69 1f 7c be ff e8 d9 3b
       0.4006294 0.69130784 -0.24621357 0.0066500898
000010 32 9d f3 3e 37 25 47 3e b8 46 a5 bd 0e 8a 39 be
       0.47580868 0.1944779 -0.08070129 -0.1811907
000020 df 54 08 3e 5e 22 df be 80 18 a9 be b4 9e fe be
       0.13313626 -0.43580908 -0.33026505 -0.49730456
000030 8b 9c 28 bd 05 63 8f be c6 49 5d be 3f dd e1 3d
       -0.041164916 -0.28005233 -0.21610174 0.110285275
000040 73 8f 08 3f 32 83 e0 3c 9e 00 3e be 3e b9 9f be
       0.53343886 0.027406309 -0.18554923 -0.31196016
000050 af b7 15 be e1 75 3d be a7 48 53 3d 2f 9f 82 be
       -0.14620851 -0.18501998 0.05158296 -0.25512072
000060 d9 c4 0b bf a1 44 7f 3e 41 e1 97 bc 3c 72 9a be
       -0.5459724 0.24928524 -0.018540027 -0.3016528
000070 47 51 8b 3e 7e 68 06 be 80 c9 ab 3c 3a fd 5e be
       0.27210447 -0.13125798 0.020970106 -0.21776286
000080 62 7f 59 3d e2 7d 02 3e 8f 9d ba 3d 8f 52 a9 3e
       0.053099997 0.12743333 0.09112083 0.330708
000090 22 0a ec bd b3 b4 17 be 96 26 5e be 92 a5 3b be
       -0.1152537 -0.14815025 -0.21694407 -0.18324879
0000a0 4d 33 dd 3d 5a bd 09 be b3 5d 0f 3d a5 34 96 3d
       0.108008005 -0.13451138 0.035001468 0.0733426
0000b0 be 7f cf 3d 20 bd b0 3d ac a7 88 3d 52 ff c7 bd
       0.10131787 0.08629823 0.06672606 -0.09765495
0000c0 46 f4 bb be 7a 02 ab 3d 7b 84 3a 3f 2b 03 9f bd
       -0.36709803 0.08350082 0.728584 -0.07764276
0000d0 c4 f3 a8 3d 5c 27 21 3f 1e 47 6e 3e 54 68 03 bf
       0.082496196 0.6295068 0.23269317 -0.5133107
0000e0 bd 93 74 be 93 ba d9 3d 4f 6f 3b be e5 f7 98 be
       -0.23884483 0.10631289 -0.1830418 -0.2987663
0000f0 54 6f 9e 3e 4e 13 fa 3e 62 71 06 3e cb 1c 40 3e
       0.30944312 0.48842853 0.1312919 0.18760984
000100 07 9b b9 3d 81 61 76 3e 77 40 29 be 94 2c 40 bf
       0.09062772 0.24060632 -0.16528498 -0.7506802
000110 df e0 e4 3e 80 df 4d be 52 69 68 be 6f d1 32 3e
       0.44702813 -0.2010479 -0.22696427 0.17462705
000120 c8 d2 6c 3e f9 9d 8e be 00 f5 93 be 9d 6d 58 be
       0.23127282 -0.278549 -0.28897858 -0.21135564
000130 96 3e 2c 3d d0 ab d1 bd 61 52 55 bd c5 d4 90 bd
       0.042051874 -0.10237849 -0.052080516 -0.070718326
000140 b2 58 9e bd e4 fa ea be a2 a5 19 3d ee 21 ba 3e
       -0.07731761 -0.4589454 0.037511475 0.3635401
000150 27 30 16 bf 7e 4f d4 3d 94 5f a1 3e 8a 3c ee 3c
       -0.58667225 0.103667244 0.31518233 0.029081602
000160 2d 3c 66 3c df 00 4b 3e 96 df 78 3e bc 80 00 3c
       0.014052433 0.19824551 0.24304041 0.007843193
000170 7a bd 67 3e 7e e7 52 3e c2 9c 95 3d d7 a6 01 be
       0.22630873 0.2059612 0.0730529 -0.126613
000180 7f 74 00 bf 34 4f 4d 3e 63 30 10 be 97 3f 95 be
       -0.5017776 0.20049745 -0.14080958 -0.29150078
000190 e4 bd 12 3f de c5 bc 3e 67 53 05 3e 7d e2 c2 bd
       0.57321 0.3686971 0.13020097 -0.095158555
0001a0 1c f4 3b 3e d4 7e 7d 3f 2b 2c 2f be 71 9d 5c 3d
       0.18354839 0.9902165 -0.17106692 0.053861085
0001b0 44 da b1 bc 45 10 db 3b b5 cb 4d 3e c5 c2 39 be
       -0.021710522 0.006685289 0.2009724 -0.18140705
0001c0 11 dc b0 be b3 c0 d6 3d 2a 1b e6 3e 10 ce 57 3e
       -0.34542897 0.10485973 0.449426 0.210747
0001d0 59 b4 6b 3d 4a d2 94 3e 80 16 a2 be fc 00 a5 3b
       0.05754504 0.29066688 -0.3165779 0.0050355177
0001e0 c0 70 a6 bd cd b6 03 bf 76 1e 36 3f 0e e2 51 be
       -0.08126974 -0.51450807 0.7114023 -0.2049639
0001f0 5c 02 4b be 4e cf 3b 3f 83 7a 24 3e 25 89 45 b9
       -0.19825119 0.73363197 0.1606236 -0.00018838474
000200 ae 47 85 3d 87 19 ea 3e 8e 20 9f 3e 2a c7 39 be
       0.065078124 0.457226 0.31079525 -0.18142381
000210 1c a8 7d bd 9e 0b a1 3e 75 2b ed 3d 03 02 f4 bc
       -0.0619279 0.31454176 0.115805544 -0.029786116
000220 d2 f5 0d bd 4e 59 f3 3e c0 34 cf 3d 70 bc f0 be
       -0.03465826 0.47529072 0.10117483 -0.47018766
000230 27 8c 88 be 20 7b 28 3d cd eb 52 3f 8b d4 ef 3e
       -0.26669428 0.041133046 0.82391053 0.46841845
000240 cd 41 43 be 9f 82 03 3d a0 c2 20 be ba fd ce 3c
       -0.1906807 0.03210699 -0.15699244 0.02526747
000250 5c 92 f2 bc 95 fa 07 bd c9 33 99 3e ad 98 d7 bd
       -0.029610805 -0.033197958 0.2992232 -0.105271675
000260 6b 51 2e bd 7b ad 25 3d 03 82 4a 3e 52 d5 3c 3e
       -0.042558115 0.040448647 0.19776158 0.1844075
000270 55 11 89 be c3 e2 3a bd 33 29 61 be 8b 0a 4e be
       -0.26771036 -0.045626413 -0.21988373 -0.2012121
000280 b5 c3 46 be e2 c7 e2 3d ea c7 68 3e f9 0b 47 3e
       -0.19410594 0.11073281 0.22732511 0.19438161
000290 3f 16 6b 3e c9 8d f9 3d 14 69 88 3e 26 36 d3 3e
       0.22957705 0.121852465 0.26642668 0.4125225
0002a0 2a c0 05 bf a9 9b be bd ca c2 50 bc d6 14 c0 bd
       -0.52246344 -0.093070336 -0.012741754 -0.09378974
0002b0 04 65 98 3e 37 f6 1a be 65 d8 89 3e c7 cc 19 be
       0.2976457 -0.15132986 0.26922908 -0.15019523
0002c0 5b 35 11 be f5 59 64 be 1a 71 c9 bc 87 3c 93 3c
       -0.1418051 -0.22299941 -0.024590064 0.017973198
0002d0 25 a6 5b 3f cf 75 8d 3e 0d e6 d6 3e 83 8c d7 3e
       0.8580039 0.27628943 0.4197239 0.4209939
0002e0 8e 40 05 3e 56 41 56 3c 48 43 d1 bb 3f da e5 3e
       0.13012907 0.013077101 -0.0063861944 0.4489307
0002f0 bb d8 a3 3e 01 88 3c bf ab 25 7c bc dd 98 cc 3e
       0.3200129 -0.73645025 -0.01538984 0.39960375
000300 2b 50 85 3e 26 a6 96 3e d6 d0 22 3e 91 d1 c0 3e
       0.26037726 0.29423636 0.15899977 0.37659886
000310 85 50 86 3e 6e c6 00 3f a5 4c d5 bc 3b a5 33 3e
       0.26233307 0.5030278 -0.026037524 0.17543499
000320 a7 a3 ab 3e 4e dc 02 bf 8a bc ff 3e fb 8f a1 be
       0.33523294 -0.5111741 0.4994853 -0.3155516
000330 ec 86 06 bf e8 d3 1d 3f 25 e0 33 3e c3 50 01 3e
       -0.52549624 0.6165147 0.17565973 0.12628464
000340 3f 55 91 3d 64 6e 44 bf 35 1d 37 3e fd 5d c7 3e
       0.070963375 -0.7673094 0.17882235 0.38938895
000350 dc f2 14 3e bc 74 03 3f fd 69 da be 70 41 8f be
       0.14545768 0.5135 -0.42658988 -0.27979612
000360 56 37 82 3e 05 35 af 3e ef f8 3a bb a3 33 fa 3e
       0.25432843 0.34220138 -0.0028529724 0.4886752
000370 a9 15 a1 3e 7e 3c 92 be 5e 43 a0 be 8b 8b e9 3e
       0.31461838 -0.28561777 -0.31301397 0.45614275
000380 b8 7b 28 3e 4d ce 02 3f 0f 10 a8 be be d3 05 3e
       0.16453445 0.5109604 -0.32824752 0.13069054
000390 59 be 82 bc ba e5 b5 be 55 d2 28 3f 29 2c 0a bf
       -0.015959905 -0.3552683 0.6594594 -0.53973633
0003a0 e1 27 28 bd 6c ef 9e be fe 1e 94 be ad ae 84 be
       -0.041053656 -0.3104204 -0.28929895 -0.25914517
0003b0 75 1a 5e be e1 b5 6c 3e 9e 91 27 bd 90 c9 14 bf
       -0.2168978 0.23116256 -0.040910356 -0.5812006
0003c0 c9 12 d2 3d aa 66 3c 3e 65 91 5b 3e 16 a2 4d be
       0.10257489 0.18398538 0.21442182 -0.20081362
0003d0 60 99 b4 3e 0d 07 4c 3e 62 35 9f be 94 31 99 bd
       0.35273266 0.19924565 -0.31095415 -0.074801594
0003e0 e2 d1 e9 3e c6 a2 0e 3c 2e 11 13 bf e0 8c 03 bf
       0.4566794 0.0087058 -0.5744809 -0.51386833
0003f0 23 c6 76 bd 98 62 0b 3f d2 b3 c1 be 15 ff 3d bf
       -0.06024755 0.5444732 -0.37832505 -0.7421735
